pose_classification_model.tflite (tflite, 87096 bytes, 6 tensors)

sequential/dense_1/BiasAdd/ReadVariableOp f4 [64]
000000 98 f1 ee 3d af 67 96 3d c6 5f 14 3e ab 15 8d 3e
       0.11667174 0.07343995 0.1448966 0.27555594
000010 e3 10 68 3e 9e d7 62 3e 2d e8 cf 3e 84 47 74 3e
       0.22662692 0.22152564 0.40606824 0.23855406
000020 e0 1e 0f 3d a9 74 82 bd 55 e0 fd bd 4c ae ed 3d
       0.034941554 -0.063699074 -0.123963036 0.1160551
000030 f2 bd f5 3e 16 57 2b be f8 d9 31 3e ed 37 97 3e
       0.4799648 -0.1673244 0.17368305 0.29534855
000040 81 87 c3 3e c1 25 c7 3e 8a 04 56 3d 8e ab b3 3e
       0.3818932 0.3889599 0.052250423 0.35091823
000050 58 62 f3 bd c2 6f 3f be 37 f9 89 3e 46 0c ea bb
       -0.11883992 -0.18694976 0.26947948 -0.0071425764
000060 42 24 1d bd a4 ba 84 3e c7 de b0 3e d4 e5 90 3e
       -0.038364656 0.25923645 0.34544966 0.28300345
000070 0c 86 1f be 8d 98 0e bd 83 6d 32 3e 6d d9 28 bd
       -0.15578479 -0.034813453 0.17424588 -0.04122298
000080 dd c5 ea bc 69 b5 2a 3e 8f 53 df 3d d8 24 c7 3e
       -0.028658802 0.16670765 0.109046094 0.38895297
000090 58 39 00 3f 1c b0 63 3e a3 f6 a7 3e 3e 48 0d 3e
       0.500875 0.22235149 0.32805356 0.1379709
0000a0 b7 04 4d 3c 98 26 f2 bd c9 93 8a 3c f3 58 22 3e
       0.012513331 -0.118237674 0.016916173 0.15854244
0000b0 54 00 d6 3d 8c 0d 3f 3e f8 d2 14 3e 4c fa 3a 3e
       0.10449281 0.18657511 0.14533603 0.18259543
0000c0 3f 70 33 3e 09 41 8b 3e 04 c3 90 3e 42 76 ac 3c
       0.17523287 0.27198055 0.28273785 0.021052483
0000d0 2e 59 56 3e 8e c3 32 be 74 d5 03 be d5 e7 82 be
       0.20932457 -0.1745741 -0.12874395 -0.255675
0000e0 2f 46 6a 3e 05 b2 94 3e 02 19 19 3f 4e 89 95 3e
       0.22878335 0.29042068 0.59803784 0.29206318
0000f0 9d a1 4a 3e 62 7a 9d 3e 09 68 9a 3e 76 c1 b0 bc
       0.19788213 0.30757433 0.30157498 -0.021576624

sequential/dense_2/BiasAdd/ReadVariableOp f4 [3]
000000 c9 e8 7b 3d 85 b5 e4 bc 54 b1 85 bd
       0.061501298 -0.027918587 -0.06527963

sequential/dense/BiasAdd/ReadVariableOp f4 [128]
000000 7e ce c7 bd fb 36 82 ba 3e e7 c5 bc 89 81 ee bd
       -0.09756182 -0.0009934598 -0.024158116 -0.116458006
000010 bf 00 cb bd 51 76 c4 bd 76 14 40 be 4a 47 24 bd
       -0.09912252 -0.095928796 -0.18757805 -0.04010705
000020 eb f8 26 bd f3 00 52 3d 0a 84 66 bc 78 33 e1 3b
       -0.04076473 0.051270436 -0.0140695665 0.0068725906
000030 06 85 9e bd f2 97 98 bd a6 f2 f1 bd 2e c9 a0 bd
       -0.07740216 -0.07450856 -0.1181386 -0.07850872
000040 89 1c ef bd 29 a7 23 bd 09 fc be bd 90 90 a2 bd
       -0.116753645 -0.03995434 -0.09325416 -0.07937729
000050 00 a8 79 bc ed 8d da 3d 00 00 00 00 2e 98 d3 bd
       -0.015237808 0.106716014 0.0 -0.1033176
000060 23 86 2b 3e dc 71 f1 bd fb cd e0 bd 30 0d f7 3b
       0.16750388 -0.11789295 -0.10976788 0.007539414
000070 86 03 be bc 4a a7 b5 bc 34 39 90 bd 38 fe ee 3c
       -0.02319504 -0.022174496 -0.07042161 0.029173955
000080 49 5a 43 bc 81 d9 fe bc 86 d0 7c bc 9a da bc 3d
       -0.011923381 -0.031109573 -0.015430575 0.092213824
000090 65 ec 67 bd d8 bd 20 3e c9 72 6c 3d 1a 76 a1 bc
       -0.056621928 0.1569742 0.057726655 -0.019709636
0000a0 76 51 2d be 51 98 b6 3d 75 6e 98 bd c1 42 77 b9
       -0.16925606 0.08915771 -0.07442943 -0.00023580623
0000b0 60 aa 8f bc 8a 72 f2 3d 84 2e c3 3d 5a 14 07 3e
       -0.017537296 0.11838253 0.095303565 0.13191357
0000c0 91 82 c2 3d 14 15 be bd 82 05 05 bd cf 2e 06 be
       0.0949756 -0.09281364 -0.032475956 -0.13103794
0000d0 ab 67 32 be 76 d7 6f be be fc 0b 3d 31 1a 7a bd
       -0.17422359 -0.23422036 0.03417658 -0.061060134
0000e0 de 2f 5e bd 58 04 04 bd 10 6e 96 bd a3 f7 1a 3e
       -0.05424487 -0.032230705 -0.073452115 0.15133528
0000f0 84 2a 49 be c8 1b c1 bd 58 dd 2f bb d1 33 21 3e
       -0.19645125 -0.09429127 -0.0026834812 0.15742423
000100 e2 5d 30 bd c2 46 a6 bc 22 61 44 bd 46 86 43 bd
       -0.043058284 -0.020297412 -0.047944196 -0.047735475
000110 a7 ae 52 bd 99 37 4a 3d fe ad 5e be 70 c2 30 bd
       -0.051436093 0.04936943 -0.2174606 -0.04315418
000120 e4 7f 82 bd 72 8c 1d 3d dd a4 19 bd 98 4d be 3d
       -0.063720495 0.038464017 -0.03751074 0.092921436
000130 49 f8 48 bd dd 9a 7a bc 0b 3c a3 bd 53 16 05 3e
       -0.04906491 -0.015295711 -0.07970437 0.12996797
000140 6e 7d 06 bd 93 16 a8 bd c3 07 7c bd d0 3b ac bd
       -0.032834463 -0.08207431 -0.06153084 -0.08409846
000150 24 45 a5 bd 77 91 06 3d cf 18 06 bd 49 85 a4 bc
       -0.08069828 0.03285357 -0.032738503 -0.020083087
000160 23 6e 1d 3b 02 f0 e0 bd 0f 40 39 bd 30 b2 88 bc
       0.0024021945 -0.10983278 -0.045227107 -0.016686529
000170 cc 04 44 3d 6e 0a 8e 3d 5c 5b a1 bd 7e 5f f2 3d
       0.047856137 0.06935583 -0.078787535 0.1183462
000180 47 d2 24 3d 7a c8 d4 bd 2a eb 02 be 2a 53 a0 3d
       0.0402396 -0.103898 -0.1278502 0.07828362
000190 c0 ef 0d be f9 72 c7 bc b9 87 a1 bb cb 6c 36 bc
       -0.13860989 -0.024346815 -0.0049295095 -0.011134337
0001a0 1b 21 94 bc 1e 0c c3 bc 7b 37 55 be 96 b0 85 bd
       -0.018082192 -0.023809489 -0.20821945 -0.06527822
0001b0 56 40 be bd 0a 71 00 bd 10 5b b2 3d 20 90 86 bd
       -0.09289615 -0.031357802 0.08708775 -0.065704584
0001c0 1b 79 03 bc 57 32 01 be 53 43 0d be 05 97 fb bd
       -0.008024479 -0.1261686 -0.13795213 -0.12284664
0001d0 fd 4d 4d be 5c c6 2a be b6 25 05 3e 81 5a 0d bd
       -0.20049281 -0.1667723 0.13002667 -0.03451014
0001e0 30 5c 21 3c 43 7b de bd aa 55 78 bd 51 a3 67 3d
       0.009848639 -0.10863354 -0.06062857 0.056552235
0001f0 da ac e9 bc fa f0 cb bc 85 0f 83 bd 14 cf bf bd
       -0.028524805 -0.02489518 -0.063994445 -0.09365669

sequential/dense/MatMul f4 [128, 99]
000000 39 66 70 bf bb 4d 5c 3e 2a 60 3c be 43 d9 68 bf
       -0.9390598 0.21514027 -0.18396059 -0.90956515
000010 c1 d9 63 be f2 69 7f bd 92 02 dd be 9d d0 a1 be
       -0.22251035 -0.062356897 -0.43166023 -0.31604472
000020 d5 36 93 be 49 33 0b be c6 0c e9 be d2 1a 64 3c
       -0.2875277 -0.13593782 -0.45517558 0.01392241
000030 62 65 dd bf f7 3a 1e be 0d bd 3c be 7e f4 0a c0
       -1.7296565 -0.15452181 -0.18431492 -2.1711726
000040 7f b1 40 3d 83 cd 7b be 10 31 22 c0 fa 24 cb bc
       0.047044273 -0.24590115 -2.5342445 -0.024797905
000050 33 7e 94 be 00 ed 2f 3e ed 12 01 bf 7c f0 ac be
       -0.29002532 0.17180252 -0.50419503 -0.33777225
000060 10 71 25 c0 a7 c6 d4 bc bb 3c 85 bb 8e 61 03 bf
       -2.5850258 -0.025973631 -0.0040660775 -0.5132073
000070 67 7a 26 3e 82 88 4d 3c 21 3b b6 bf d2 36 b0 3e
       0.1625763 0.012544753 -1.4236795 0.34416825
000080 b9 14 d9 3d 8f ae d0 bd ad d3 09 bf 97 d9 ca bc
       0.10599656 -0.101895444 -0.53838617 -0.024761958
000090 f5 48 24 bf 67 8d 8a bd 6d e0 82 bd 9d 82 9b bd
       -0.64173824 -0.067652516 -0.06390462 -0.07593272
0000a0 62 ff 36 3e 09 20 2c bd 2a b2 79 3e e5 7c a5 bd
       0.17870858 -0.04202274 0.2438437 -0.08080462
0000b0 84 57 06 bd 79 76 12 be 40 0b 0a 3e 3e 66 9c 3e
       -0.032798305 -0.14303006 0.13480854 0.30546755
0000c0 f1 c5 7d 3f 4d 16 49 3e f6 1c 8e 3e 44 84 48 3c
       0.9913016 0.19637413 0.2775647 0.012238566
0000d0 58 1a 46 3e af 06 6f 3e b4 5e 86 3f 5d b0 ca bc
       0.19345987 0.23342393 1.0497651 -0.0247423
0000e0 77 11 df 3d b4 29 3a be 51 51 b5 3d 91 ca 79 3e
       0.10892003 -0.18179971 0.088534005 0.24393679
0000f0 df 67 24 3f f2 78 bd 3d ce eb 42 3e 01 c3 47 be
       0.64220995 0.09251584 0.19035265 -0.19507982
000100 8f 6d 8c 3d 2d 65 bc 3e cd 84 00 3f a3 c1 d3 3d
       0.06856834 0.3679594 0.5020264 0.10339668
000110 88 bc 04 3d 51 97 20 3f 9e aa 82 3e a4 a4 28 3f
       0.03240636 0.6273089 0.25520796 0.6587622
000120 32 5d 7a 3f f1 c5 87 3e c4 b2 1d bf cb 7c fa 3e
       0.97798455 0.26518205 -0.616009 0.48923334
000130 64 c5 f0 3d 1b 0f 6e bd fe 7b d3 3d 6b 1f 9b 3e
       0.11756399 -0.058119874 0.10326384 0.30297408
000140 7d 44 5d be 83 e6 01 3f 45 55 6b 3e 37 04 ca 3d
       -0.21608157 0.5074236 0.22981746 0.09864085
000150 cf d0 fd bd b6 07 95 3e bd 4f db be 49 fb ad 3e
       -0.12393343 0.29107445 -0.42834273 0.33980778
000160 40 41 9f 3e 5e bf fc bd 8b 81 ad bc 1c c0 57 3e
       0.3110447 -0.12341188 -0.021179935 0.21069378
000170 ae c0 4b be 27 a8 03 3f 69 3d 5e 3e b1 19 96 bd
       -0.1989772 0.51428455 0.21703114 -0.07329119
000180 30 62 fd 3c a9 2a 9b 3d 82 73 b8 be 3d 41 60 be
       0.030930609 0.07576496 -0.36025625 -0.21899886
000190 d2 d1 16 bf 8e e3 6f 3e 5f 88 3c bf df 08 8d be
       -0.5891391 0.23426649 -0.73645586 -0.2754583
0001a0 b0 84 fc 3d 3b a5 5b bf 0b 24 d3 be 00 f5 8d 3e
       0.12329996 -0.85798997 -0.41238436 0.27725983
0001b0 54 c9 42 bf 08 46 59 be 1e 65 49 3d f8 20 89 be
       -0.7608845 -0.21218121 0.0491687 -0.26782966
0001c0 90 7d e3 be 40 9f fc 3d d0 42 9e 3d 35 b1 ab be
       -0.44431734 0.12335062 0.07727587 -0.33533636
0001d0 9a bd 19 3e ed 33 12 3e 44 c4 7d be 00 54 90 3d
       0.15013734 0.1427762 -0.247819 0.07047272
0001e0 ec 14 36 bf d7 93 76 be 19 d2 c7 3b 65 6e 7c 3d
       -0.71125674 -0.24079834 0.0060980436 0.061628718
0001f0 81 b7 c9 bd 0c b2 27 3e 32 bb d5 be b7 bf d5 be
       -0.09849454 0.16376513 -0.4174438 -0.4174783
000200 2e e5 81 3e 36 f3 95 3e 63 6b e1 be df 59 34 3d
       0.25370163 0.29287118 -0.44027242 0.04403102
000210 55 84 80 be 49 d2 02 be 12 72 04 3d 70 f4 ea be
       -0.2510096 -0.1277553 0.03233535 -0.45889616
000220 06 49 a5 bc c8 ac bf be 88 3a 43 3e c1 2c ba bd
       -0.020176422 -0.3743651 0.19065297 -0.090905674
000230 76 00 92 3e d4 66 33 bf 3c b7 a1 bd cd 43 8c 3e
       0.28515977 -0.7007878 -0.07896277 0.27395478
000240 72 df c8 3d eb a8 d6 3d 72 54 dc bd 13 25 ba be
       0.09808244 0.10481437 -0.10758294 -0.3635641
000250 1a e8 07 3f b0 6a f5 3d 13 2d 96 bc 97 50 d3 3d
       0.53088534 0.1198324 -0.01833204 0.10318106
000260 f6 48 92 be 12 bb b4 be 78 ee ef 3e ed 7c f6 3d
       -0.2857129 -0.35298973 0.46861625 0.120355465
000270 8a 10 cb bd 00 9d 76 bc 83 3e 6b be 0c 5c 96 3e
       -0.09915264 -0.01505208 -0.22973065 0.293671
000280 30 58 bc 3e 6a 6a 86 3d 66 df 10 be 97 6f a8 bc
       0.36786032 0.065632656 -0.1414772 -0.020561023
000290 63 8a a3 3c b2 3c 5e 3d 44 6f f8 3e 79 fa f3 3d
       0.019963449 0.054257102 0.4852239 0.11913008
0002a0 f4 85 41 bd 69 5f de be af 3d a7 3e 1f 83 55 bd
       -0.04724689 -0.43432167 0.32664248 -0.052127
0002b0 d2 fd a2 be 18 0b ad be f7 27 60 3e 74 26 3c be
       -0.31834275 -0.33797526 0.21890245 -0.18374044
0002c0 66 d8 29 40 b1 aa 39 3f b5 95 aa be 41 39 20 be
       2.653833 0.7252608 -0.33317342 -0.1564684
0002d0 86 44 77 3e 76 42 8d be 90 bf 5e 3f 03 a3 7f 3f
       0.24147233 -0.27589768 0.8701105 0.9985811
0002e0 c0 0a 96 be 55 0f 59 3e 43 5d 02 3f 3d a5 b1 be
       -0.29305077 0.21197255 0.50923556 -0.3469638
0002f0 a0 54 6d 3f aa 00 5e 3f 57 02 9a be 7a 2c 49 3e
       0.9270725 0.86719763 -0.3007991 0.19645873
000300 4a f6 06 3f 60 3a 76 be 9f b5 f7 3f f2 ce a1 3f
       0.5271956 -0.24045706 1.9352301 1.264128
000310 04 0b 78 be 8c e3 84 3e 0a 71 9b 3b e4 97 95 be
       -0.24222952 0.25954854 0.0047437 -0.29217446
000320 2b 39 a3 bd d5 c5 42 3e 6d 57 c0 be 81 fb 74 3d
       -0.07969888 0.1902078 -0.375667 0.059810165
000330 ec 95 6a 3e ce 15 12 be 07 31 01 3e 83 f8 50 3e
       0.22908753 -0.1426613 0.12616359 0.204073
000340 4c 69 8d bd c7 47 a7 3d f0 d6 57 bc 9e 63 8b be
       -0.069048494 0.08167987 -0.013173804 -0.2722444
000350 aa b0 6e bc 19 1e 88 be 58 db 5c be 1a e4 b0 3c
       -0.014568487 -0.26585463 -0.21568048 0.021593142
000360 e8 25 93 be 49 9b ac be 05 27 e9 3d ca 1c 0a 3f
       -0.28739858 -0.33712223 0.113843955 0.5395018
000370 94 03 f3 bd 7d ae dc bd bc 52 0a 3e d4 70 eb be
       -0.11865917 -0.107754685 0.13508123 -0.4598452
000380 dc f9 29 3e 3d dc d9 bd d6 6f 26 bd a0 61 5b 3d
       0.1659922 -0.1063771 -0.040634 0.0535599
000390 76 90 59 be 86 0b 90 bd d7 91 e3 3d 0c 71 c2 3b
       -0.21246514 -0.07033448 0.11111801 0.0059338864
0003a0 db 1a a3 3e c4 02 c2 3e c2 72 08 c0 9c b5 f1 bd
       0.31856427 0.37892735 -2.1320043 -0.11802217
0003b0 48 c8 44 bf 78 01 07 bf 32 c0 09 3f 19 27 76 3f
       -0.76868105 -0.52736616 0.5380889 0.9615341
0003c0 1b e2 92 3f 57 17 67 3e 73 fc e2 3e d7 dd d2 be
       1.1475252 0.22567497 0.44333228 -0.41184875
0003d0 e9 47 ec 3e 69 61 6d 3e 4a 40 6c bf 02 d1 0f 3f
       0.46148613 0.2318169 -0.922856 0.56178296
0003e0 18 45 f4 bd 55 69 ea be 47 74 85 3e d9 54 42 3d
       -0.11927241 -0.45783487 0.26065275 0.0474442
0003f0 0c e0 c6 bf 5b 17 55 3f 3b 15 3c be b5 07 fb be
       -1.5537124 0.8323876 -0.18367474 -0.49029317

sequential/dense_1/MatMul f4 [64, 128]
000000 27 15 29 3d 9c a5 ae be e3 01 56 3e 25 d9 1e c0
       0.041279938 -0.34110725 0.20899157 -2.4820035
000010 5c cf 3e 3e 51 0f 0a 3f 2a ce 1a 3d 5e 3c 0c 3f
       0.18633789 0.5392962 0.03779427 0.54779613
000020 1f 0d 48 3c 65 b1 20 be 0f 16 82 bf fe d0 46 be
       0.01221016 -0.1569267 -1.0162982 -0.19415662
000030 1e 70 40 bf 0b 1f 03 3c f9 98 ce 3c f4 f0 f3 bd
       -0.7517108 0.008003007 0.025219427 -0.119111925
000040 e7 21 1e 3e fc 2c 3d 3e b3 ab fc 3c 5f 65 cb 3b
       0.1544262 0.18474191 0.030843591 0.0062071527
000050 2c fa 0c be 60 ee 32 3e da b6 be bd 00 bd 2c 3e
       -0.13767308 0.17473745 -0.0931222 0.16868973
000060 d4 50 28 3e d5 71 26 c0 71 8e 6e 3d 9f d7 37 bf
       0.16437083 -2.6006978 0.05824131 -0.71813387
000070 ab a4 0a be c1 62 a4 bf 83 6a f5 bd dc f1 7b bf
       -0.13539378 -1.2842637 -0.11983206 -0.98415923
000080 b0 50 ac 3c e2 b6 53 3e ef b4 e4 bf 24 ef b9 bd
       0.021034569 0.20675233 -1.7867717 -0.090788156
000090 fd 9b 20 bd 9c 57 63 3e 41 23 15 be 52 ae 84 3e
       -0.039211262 0.22201389 -0.1456423 0.25914246
0000a0 1c bc 10 3e 9d 5d 45 be 9b d5 80 bd 46 ae 73 be
       0.14134258 -0.19273992 -0.06290742 -0.23796949
0000b0 a0 27 17 3d a5 9f 1f be e8 2f a4 bf 6f 15 34 bf
       0.036903024 -0.15588243 -1.282712 -0.70345205
0000c0 41 02 c2 bf c0 74 30 3e 7d 60 4d bd 18 9a b8 be
       -1.5156938 0.17232037 -0.050140847 -0.36055064
0000d0 bd b0 ae 3e d3 38 69 3e d5 d1 88 bf 48 04 88 3c
       0.34119216 0.22775583 -1.0689036 0.016603604
0000e0 9f e8 0e 3f 0d af 7f 3e 97 1a 09 be 51 e4 b5 3e
       0.558237 0.2496912 -0.1338905 0.35525754
0000f0 5a b5 65 3d 09 01 d7 3d fb 9d 9b bf 47 cd 5d be
       0.056081153 0.10498244 -1.2157587 -0.21660338
000100 29 49 76 3d f1 bf c9 bd 4e 03 9c 3b 79 85 6c bf
       0.060128365 -0.09851063 0.004761136 -0.92391163
000110 f7 c3 01 bf 39 84 93 bd 05 5c a3 3e 71 c9 ec 3b
       -0.50689644 -0.07202954 0.31906143 0.007226162
000120 d3 91 bf 3d b1 02 38 bf ff 2d 0d 3e 8a 86 03 3f
       0.09353986 -0.71879107 0.13787077 0.51377165
000130 73 19 06 3d af c8 3b 3e 3f 78 77 3e db 47 e7 3e
       0.032739114 0.18338273 0.24166964 0.4517201
000140 b1 b7 81 3d c7 8e 97 bc 2c a6 16 be 39 53 a1 3d
       0.063338645 -0.018500699 -0.14711827 0.078772016
000150 43 80 64 bf 6a cd 8a bf 11 7a 20 bd 60 a3 d2 bf
       -0.8925821 -1.0843937 -0.03917891 -1.6456108
000160 c1 d4 20 bf 27 3c 46 3e a7 0f b0 bd cf 2b 08 bf
       -0.62824637 0.19358884 -0.085967354 -0.53191847
000170 7a 7c 92 bf e4 b9 fe bf 32 54 dc 3e 60 ec 0a 3f
       -1.1444237 -1.9900479 0.43032986 0.5426693
000180 16 2a 98 bf 2e c9 12 3e 0d 89 cc 3d 40 dc 3c 3e
       -1.1887844 0.14334556 0.09987078 0.18443394
000190 41 ef f9 3c ea ff c4 bd 0c 1c 41 bf 03 8d db 3e
       0.030509593 -0.09619124 -0.7543342 0.4288102
0001a0 8e d3 ec bf 49 de 86 be 2c 7b 3f 3d 0d 70 7c bc
       -1.8502061 -0.26341465 0.046748325 -0.015407574
0001b0 ca 37 26 be 3e b0 88 3e 60 70 89 3e 12 40 c4 3e
       -0.1623222 0.26696962 0.26843548 0.38330132
0001c0 9f db 11 3e ce 38 a7 3c 40 21 a0 bf 68 98 a5 3d
       0.14243935 0.020412829 -1.2510147 0.0808571
0001d0 f0 ab 85 3c 99 dd cb bd 47 93 e4 bc 9c df 10 3e
       0.016317338 -0.09954376 -0.027902259 0.141478
0001e0 a0 22 24 bf 9c 8c 2a 3e 26 7c ff bc d5 c1 99 bf
       -0.64115334 0.166552 -0.031187128 -1.2012278
0001f0 f6 34 58 bd 1d db ea 3d 5c 25 aa bd 42 df 8f bf
       -0.052784882 0.11467574 -0.08307907 -1.1240008
000200 06 98 16 3f 6a 5c 5b bf b4 9d 12 be 52 c9 c1 bd
       0.5882572 -0.8568789 -0.14317971 -0.09462227
000210 70 98 06 be 81 47 d9 3e 43 99 69 3e 5b 49 67 3d
       -0.13144088 0.42437366 0.22812371 0.05646644
000220 bd ee 8f bb 57 d1 37 be 4c 36 86 3e 78 3a 6d 3f
       -0.0043924735 -0.1795095 0.262133 0.9266734
000230 c9 7e 17 3f 13 d4 db bd f3 61 fe be 2a 78 25 3e
       0.59177834 -0.10733809 -0.49684104 0.1615912
000240 c8 71 60 3d e5 8d c9 bd 80 7f 6f 3e 6d 9c 87 bb
       0.05479601 -0.09841517 0.23388481 -0.0041385205
000250 66 4a 84 bd 91 35 f7 be 77 83 03 3e 1c 0c d9 3e
       -0.06459503 -0.48283055 0.12843119 0.4239205
000260 6b 6c 5c 3d 7c 95 1b bf 3d 1c c4 3e f5 52 35 bf
       0.053814333 -0.6077497 0.38302794 -0.7082971
000270 13 26 0f be 3d 7c 26 bf 73 60 d9 3a ad 3c 14 3e
       -0.13979368 -0.6503332 0.001658453 0.14476271
000280 12 94 8e 3b 7f ab 6a 3e 36 8a 41 be e8 c8 33 3d
       0.0043511475 0.22916983 -0.1890038 0.04389277
000290 95 d9 ed 3e 4a 20 80 be b4 d3 b8 bb a5 c8 c0 3d
       0.46455064 -0.25024635 -0.0056404714 0.0941327
0002a0 ff 34 a5 be 6f 59 ea 3c a8 b9 31 bb 0f e5 61 3d
       -0.32266995 0.028607098 -0.0027118716 0.055150088
0002b0 79 40 c1 3b c8 0b b5 bc 7c 4d bb be b7 7f 86 bd
       0.0058975783 -0.022100344 -0.36582553 -0.065673284
0002c0 43 ea f5 3d 5d 4c 05 3e 32 16 e3 3d bf 46 13 bf
       0.120075725 0.13017412 0.11088218 -0.57529825
0002d0 ed d1 52 3e ef 2a 88 3e f8 bf 5d bf 63 7b 5c bd
       0.20587893 0.26595256 -0.86621046 -0.05382861
0002e0 f8 ea 55 bf 7f 26 16 3f 0a 1e 08 be 33 06 e5 bc
       -0.8356166 0.5865249 -0.13292709 -0.027957058
0002f0 eb f9 e1 be 66 e9 eb bd 2d 43 e5 3e c7 02 a0 bd
       -0.44135985 -0.115191266 0.44777814 -0.0781303
000300 6c f5 e7 bd 36 53 da 3d 9d 16 38 bd 4b a5 a0 3f
       -0.113261074 0.106604025 -0.04494344 1.2550443
000310 51 3a 8c bc 3f b4 bc 3d d5 c3 50 3f 27 e8 31 3f
       -0.017117651 0.09214067 0.81548816 0.6949486
000320 d2 38 95 3e 48 ae ea bd bc 2c c0 bd e9 3d 20 3e
       0.29144913 -0.11459023 -0.093835324 0.15648617
000330 60 52 20 bd f5 81 a5 bd 85 b8 c7 bd 9d 8b de 3e
       -0.03914106 -0.08081428 -0.09751991 0.4346589
000340 31 8d 4f bd 31 42 05 3e a5 73 9d 3e cc 19 40 3f
       -0.05067176 0.13013531 0.30752292 0.7503936
000350 0c c0 0f be 31 26 59 3f 3c 7b ba 3e 29 c8 9f be
       -0.14038104 0.848239 0.36422145 -0.31207398
000360 ed 22 0a 3f a7 75 ae bd 20 e4 16 3d 81 55 c3 bd
       0.5395954 -0.08518534 0.03683865 -0.09537793
000370 f1 1c aa be de 2b 35 bf b0 c2 ee 3d 3d 59 47 be
       -0.33225206 -0.7077006 0.116582274 -0.19467635
000380 ff d6 0a bf 5e ce a2 3e 1e b5 bb be 45 e3 98 bd
       -0.5423431 0.3179807 -0.3666162 -0.07465223
000390 cc 1a ab 3e 80 d4 07 3f 77 37 37 3e 5e 52 7b 3d
       0.33418882 0.53058624 0.17892252 0.06135785
0003a0 22 4e 40 be 60 79 6d be fe f6 21 3e cf 6b bb 3e
       -0.18779805 -0.23190832 0.15816876 0.3660569
0003b0 f1 82 be bb 21 50 38 3e f0 4b 74 be 52 14 91 3f
       -0.0058139493 0.17999317 -0.23857093 1.1334326
0003c0 2a 92 a0 3e 23 80 43 bd c3 8c 59 3e 22 c9 75 bb
       0.31361514 -0.047729623 0.21245103 -0.0037503918
0003d0 dc 1e 0c be 18 43 6f 3e a9 df 14 3f ea 70 53 3e
       -0.13683647 0.23365438 0.5815378 0.20648542
0003e0 b8 4f 98 be 1a ee 9a 3e 77 5f 7e bc 45 94 6f 3d
       -0.2974832 0.30259782 -0.01552569 0.05849101
0003f0 f9 9e 06 3e 75 a6 1b bd d0 82 8d 3e 4b b9 15 3f
       0.13146581 -0.038000543 0.27638865 0.5848586

sequential/dense_2/MatMul f4 [3, 64]
000000 71 8f 07 40 ba a2 87 3e 8d d5 98 3f 9f b2 df 3e
       2.11813 0.26491338 1.194017 0.43690965
000010 b2 63 3d 3e a5 1a 0e 3d 73 1d 94 3e b5 9b 00 3f
       0.18495062 0.03469338 0.28928718 0.5023759
000020 62 30 96 3f e1 70 f3 3e 5f 76 59 bf bc 77 17 bf
       1.1733515 0.47547057 -0.84946245 -0.59167075
000030 b2 74 e1 bf 48 04 40 bd 68 04 48 3e 4d a8 33 bf
       -1.7613738 -0.046879083 0.19532931 -0.7017868
000040 0b 9d 02 3f c7 1e cb bb ff ca ff bd 37 e2 cf bf
       0.5102088 -0.0061987373 -0.1248989 -1.624091
000050 6e b2 96 3f b7 36 25 3e f6 4c 84 3f b9 3f ea bf
       1.1773202 0.16134153 1.0335987 -1.8300697
000060 6b 3a f0 be dc 8a c0 3d de 63 8d 3f 60 87 23 3f
       -0.4691957 0.09401485 1.1046102 0.6387844
000070 6a 48 4b be aa 1d f3 be 31 00 83 bf a5 12 27 bc
       -0.19851843 -0.4748357 -1.0234433 -0.010197316
000080 4f 3d 2b 3e cb 3f 0f c0 6c c5 96 3f f9 62 a7 3f
       0.16722606 -2.2382686 1.1778998 1.3077079
000090 60 f1 ee bf e9 30 b0 3e f2 ac b8 bf 9f 35 9c bf
       -1.8667412 0.34412315 -1.4427779 -1.2203864
0000a0 a9 5b ad be f7 ae 35 bf a4 c2 66 3e 3d 6c 21 3e
       -0.33858994 -0.709701 0.22535187 0.15763946
0000b0 2b 9d 0a be b5 87 59 bf 93 00 d1 3d 43 48 27 c0
       -0.13536517 -0.849727 0.10205188 -2.6137855
0000c0 1f 19 8b 3e df 68 b8 3f 5a 69 0d bf 9a d0 34 3e
       0.27167603 1.4407004 -0.5523888 0.176577
0000d0 a3 c4 90 3f 33 b1 62 be 24 db 6d 3f 7c 4d bc bf
       1.1310009 -0.22137909 0.9291251 -1.4711146
0000e0 65 87 3a 3f 45 13 d7 bf 81 1a ee bf 7d 46 ee 3f
       0.72862846 -1.6802756 -1.8601838 1.8615261
0000f0 41 db cd 3d 99 a2 50 3f 51 b1 b2 3f 87 d5 09 3f
       0.10051585 0.81498104 1.3960363 0.5384144
000100 b5 7d 13 c0 63 77 ab 3e 6d 09 d7 bf 27 65 0f bf
       -2.3045475 0.33489522 -1.6799752 -0.5601372
000110 6c 36 4a 3e 76 56 59 3e 56 29 7a bf 36 5b bd bd
       0.19747323 0.21224388 -0.97719324 -0.09245913
000120 c2 3f c0 bf ec 68 c6 bf ee 23 12 3f a6 f6 94 3e
       -1.5019457 -1.550077 0.57086074 0.29094428
000130 56 89 2a 3f 81 23 0f 3e b6 f3 a2 3d e7 68 f4 3e
       0.6661581 0.13978387 0.079566404 0.47736284
000140 24 43 e8 3c 02 09 14 c0 29 00 35 3e 80 18 14 3e
       0.028352328 -2.3130498 0.17675842 0.14462471
000150 95 ee 34 bf f0 17 86 3e 5c f7 70 bf c5 a3 a1 3f
       -0.7067655 0.26190138 -0.9412744 1.2628103
000160 17 5f 09 3f fd de 1d 3f 9d 25 09 bf 01 0b f2 be
       0.5366072 0.6166838 -0.5357302 -0.4727402
000170 85 29 4b be a4 20 d1 3e 12 e7 aa 3f d8 4a 0c bd
       -0.19840057 0.40845215 1.3351767 -0.034251064
000180 54 9c 71 3e 86 14 e4 3f 97 57 84 bf bd b6 bc bf
       0.2359479 1.7818763 -1.033923 -1.4743267
000190 54 23 f5 3f c0 9d 10 3e a1 26 08 c0 59 19 c4 3f
       1.9151406 0.14122677 -2.1273577 1.5320235
0001a0 be b3 a8 3e 54 10 89 3f 92 11 51 bf 58 88 df 3d
       0.32949632 1.0708108 -0.81667435 0.109146774
0001b0 96 b3 f4 3e c0 93 2d 3f b1 e6 8c 3d 33 1d 3b 40
       0.47793263 0.67803574 0.068799384 2.9236572
0001c0 8e 1f cc 3e 6e ec b1 bf ee b6 4f 3f de 53 e9 3d
       0.39867824 -1.3900278 0.81138504 0.113929495
0001d0 48 0d c1 bf 8f bd 40 be f3 68 78 bf 7f e4 86 3f
       -1.5082178 -0.18822311 -0.9703514 1.0538481
0001e0 c5 d9 a1 bf 3a dd 73 3f dc 88 26 3f 02 7c ab bf
       -1.2644583 0.9525944 0.6505258 -1.3397219
0001f0 7c 5c 5a 3e 6b 35 7d bf 1d b4 b0 bf 8e 9a d2 bf
       0.21324342 -0.98909634 -1.3804966 -1.6453416
000200 28 3c 18 bf d4 a7 31 bf f7 a0 4c 3f c2 03 4d 3f
       -0.5946679 -0.6939671 0.7993311 0.8008386
000210 38 aa dd bf a4 b1 05 c0 1d 08 64 3f 57 a5 65 bf
       -1.7317572 -2.0889673 0.8907488 -0.89705414
000220 c6 8f 45 3f 1b 31 5c 3f a3 c0 6c bf ad a5 4d 3e
       0.77172506 0.8601243 -0.9248144 0.20082732
000230 c8 11 0c 3f df cd 0c c0 df 77 a8 bf c1 5d 07 3e
       0.5471463 -2.2000654 -1.3161582 0.13219358
000240 06 14 99 bf 46 7e 1c 40 f1 ed ee bf bc 75 9e 3f
       -1.1959236 2.445207 -1.8666364 1.237968
000250 89 27 17 3d 5a d5 b8 be 9c c3 ed be ce 39 62 3f
       0.036902938 -0.36100274 -0.464383 0.8836945
000260 b1 aa 57 bf 9d 39 e4 bf be d1 e0 bf 79 14 3e c0
       -0.8424483 -1.7830082 -1.7564008 -2.9699996
000270 1d e0 3f 3d 6e 0c 1f bf dd cc e8 bf 8f ac ef bf
       0.04684459 -0.6212834 -1.8187519 -1.8724536
000280 b3 b3 39 bf e7 52 0a bd 94 51 8e bf cc 8c d7 be
       -0.72539824 -0.033770468 -1.1118646 -0.42099607
000290 45 a2 9b 3e 46 3c dd bf b6 62 34 40 35 40 ce be
       0.3039724 -1.7284019 2.8185248 -0.4028336
0002a0 20 22 e6 bf 2f b5 e5 bf c9 94 08 40 a8 e1 91 bf
       -1.7979164 -1.7945918 2.1340811 -1.139699
0002b0 8d f1 e9 bf e9 4a 9a 3e 83 57 81 bf 9a d5 e7 bf
       -1.827684 0.30135277 -1.0104831 -1.8112061
0002c0 c4 5c 80 bf 17 4c 05 bf c3 82 f7 bf bb e4 82 bf
       -1.002831 -0.5206923 -1.933678 -1.0226053
0002d0 d2 62 b1 be ec 59 23 bc 64 c2 87 be 46 2f 0c be
       -0.34645706 -0.0099701695 -0.26515496 -0.13689908
0002e0 85 58 a2 3f c0 4b a6 3f f6 5b 2b 3f 0f 02 90 bf
       1.2683264 1.2991867 0.66937196 -1.1250628
0002f0 ac be 03 c0 aa 3c f1 bb 49 19 95 be 9a aa a5 3e
       -2.0585127 -0.007361968 -0.29120854 0.3235672
